MNIST/keras_model_cnn.tflite (tflite, 377096 bytes, 10 tensors)

sequential/dense/BiasAdd/ReadVariableOp f4 [64]
0.053414684 0.06405744 -0.06404151 0.037776213 -0.039022475 -0.065942004 0.0373471 0.009734319
0.01121507 -0.022360863 0.010934209 -0.09007516 0.032320008 -0.017940173 0.016131686 0.0818446
0.032289863 0.04574237 -0.045424588 -0.022785893 -0.08172601 0.008890053 0.082145095 -0.023919133
0.019340022 -0.0038698062 -0.03964872 -0.06548137 -0.03922562 -0.036226958 0.058737725 0.0139479
0.01554496 0.025893427 -0.010271439 -0.051800296 0.053082462 -0.013824625 -0.006062242 0.045818828
0.0402982 0.046968702 -0.020347748 0.021332229 -0.059939306 0.036208633 0.064723775 -0.019734832
-0.020627981 -0.016743762 -0.030489177 -0.026132943 0.008476113 0.039624453 -0.06947234 -0.036476962
0.013016557 0.046789005 0.09185293 0.07990678 0.002177886 -0.01474509 0.03678694 -0.030222086
00000000: 5bc9 5a3d 8c30 833d 3228 83bd 3bbb 1a3d
00000010: 08d6 1fbd 9a0c 87bd 46f9 183d b17c 1f3c
00000020: 6abf 373c 212e b7bc 6625 333c 5379 b8bd
00000030: fc61 043d 45f7 92bc 9926 843c 249e a73d
00000040: 6042 043d 5a5c 3b3d 220f 3abd 7ba9 babc
00000050: f75f a7bd 96a7 113c b03b a83d 0ff2 c3bc
00000060: f76e 9e3c 939c 7dbb b266 22bd 191b 86bd
00000070: 0bab 20bd b862 14bd f896 703d bc85 643c
00000080: 4ab0 7e3c 741e d43c 8a49 28bc 8c2c 54bd
00000090: ff6c 593d ae80 62bc c6a5 c6bb 86ac 3b3d
000000a0: ba0f 253d 4162 403d 52b0 a6bc edc0 ae3c
000000b0: eb82 75bd 814f 143d e68d 843d f1aa a1bc
000000c0: 03fc a8bc 372a 89bc 70c4 f9bc c114 d6bc
000000d0: 65df 0a3c 404d 223d 8447 8ebd de68 15bd
000000e0: 6643 553c d4a5 3f3d 641d bc3d 2aa6 a33d
000000f0: ddba 0e3b 6495 71bc e7ad 163d 4f94 f7bc

sequential/dense_1/BiasAdd/ReadVariableOp f4 [10]
0.0078885285 0.067244925 -0.04537626 0.0077396985 0.05495704 -0.015937211 -0.06062261 0.031225473
0.025484418 -0.067104034
00000000: e33e 013c b5b7 893d 75dc 39bd 4c9d fd3b
00000010: a21a 613d c18e 82bc 6a4f 78bd 90cc ff3c
00000020: b3c4 d03c d76d 89bd

sequential/conv2d/BiasAdd/ReadVariableOp f4 [32]
-0.19924603 -0.051258944 -0.07749978 -0.0906377 -0.0020471783 0.027471289 -0.045378312 0.0046410663
-0.03129026 -0.0031984467 -0.024383217 -0.02211764 -0.06435501 -0.03703061 -0.022824902 0.008428959
-0.05220504 -0.08119218 -0.14696635 0.017865218 -0.0029460944 -0.05731874 0.09684587 -0.10860759
-0.12554596 0.058563016 -0.12662207 -0.009307675 -0.13131629 -0.0029220316 -0.017654872 -0.038961135
00000000: 2707 4cbe e6f4 51bd 34b8 9ebd 42a0 b9bd
00000010: f429 06bb 780b e13c 9cde 39bd 1614 983b
00000020: 372a 00bd 089d 51bb 50bf c7bc 0e30 b5bc
00000030: 8fcc 83bd 69ad 17bd 4afb babc 9e19 0a3c
00000040: f4d4 55bd 1648 a6bd 597e 16be 145a 923c
00000050: 4313 41bb 0ec7 6abd 2157 c63d a86d debd
00000060: 1f8f 00be c6df 6f3d 37a9 01be 387f 18bc
00000070: c777 06be 8e7f 3fbb f3a0 90bc b695 1fbd

sequential/conv2d_2/BiasAdd/ReadVariableOp f4 [64]
-0.04459116 0.03065759 -0.012888011 0.00012417701 -0.04535872 -0.028004592 0.0135350125 -0.035379216
0.014543306 -0.042550307 -0.016421014 -0.007223795 -0.060860403 -0.036009274 0.016789982 -0.013352479
0.055496432 0.01259952 -0.0022831156 0.078210644 -0.027624479 -0.03555527 -0.06995431 -0.034823228
-0.04255312 -0.022164848 -0.014436638 -0.023278996 -0.034621224 -0.015011667 0.052303687 -0.026196804
-0.034487855 0.022078719 -0.019479344 -0.029766334 -0.018105704 0.0032336279 -0.034569338 -0.018199395
-0.046685204 -0.022566741 -0.016869029 -0.015538763 0.03177347 0.015859528 0.05719119 -0.016202312
-0.009025613 0.020315064 0.051096734 0.03802189 0.059483394 -0.02502594 -0.03741696 0.06777645
0.0020139182 -0.07449182 -0.010347803 0.0006547924 0.027715825 -0.03009898 -0.008155127 -0.027347196
00000000: 38a5 36bd a025 fb3c 3c28 53bc 8335 0239
00000010: 11ca 39bd e369 e5bc f5c1 5d3c cce9 10bd
00000020: 0c47 6e3c 3b49 2ebd 5d85 86bc 96b5 ecbb
00000030: c248 79bd 767e 13bd 258b 893c 5bc4 5abc
00000040: 3a50 633d 386e 4e3c 53a0 15bb e72c a03d
00000050: bb4c e2bc 67a2 11bd 3544 8fbd cda2 0ebd
00000060: 2e4c 2ebd 0e93 b5bc a687 6cbc 98b3 bebc
00000070: fcce 0dbd 7ff3 75bc 643c 563d ae9a d6bc
00000080: 2343 0dbd 6ede b43c 2593 9fbc 87d8 f3bc
00000090: 6a52 94bc 46eb 533b 9498 0dbd e616 95bc
000000a0: fc38 3fbd e3dd b8bc eb30 8abc 4c96 7ebc
000000b0: e624 023d d7eb 813c 4f41 6a3d b6ba 84bc
000000c0: 2ae0 13bc c76b a63c cf4a 513d d7bc 1b3d
000000d0: dca4 733d 3303 cdbc 8742 19bd 61ce 8a3d
000000e0: f1fb 033b 2b8f 98bd d589 29bc 60a6 2b3a
000000f0: 4c0c e33c 2392 f6bc 159d 05bc 3a07 e0bc

sequential/conv2d_1/BiasAdd/ReadVariableOp f4 [64]
-0.09815204 -0.06100444 -0.050849102 -0.00039622083 -0.02018219 -0.010945296 -0.01666983 -0.012083988
-0.026272811 -0.016695207 -0.025029505 0.008717882 0.02892898 -0.019049102 -0.026654981 0.0047858716
0.0060986783 -0.0034380795 -0.054640453 -0.040044297 0.003502518 -0.034233753 -0.028545313 -0.03345013
-0.048058387 -0.099802524 -0.054585613 0.010997872 0.0017169808 -0.008015832 -0.106931366 -0.00340733
0.03854322 -0.06807251 -0.002114418 -0.046330087 -0.0073972857 -0.028429927 -0.052872386 -0.053398613
-0.017691793 -0.009243678 -0.0205973 0.017089516 -0.07189288 -0.062048305 -0.046168055 -0.07420791
-0.005210831 -0.06884906 -0.023175323 -0.08038805 -0.01664429 -0.12833346 -0.0363232 -0.03033897
-0.021177901 -0.10001364 -0.071751624 -0.05311316 -0.06164032 -0.0023958748 -0.06882824 0.015237549
00000000: f003 c9bd cbdf 79bd 2647 50bd dcbb cfb9
00000010: 1f55 a5bc e653 33bc 2b8f 88bc ebfb 45bc
00000020: 143a d7bc 63c4 88bc ad0a cdbc 73d5 0e3c
00000030: 78fc ec3c dd0c 9cbc 8c5b dabc cdd2 9c3b
00000040: 6cd7 c73b 6751 61bb abce 5fbd 7d05 24bd
00000050: 808a 653b b138 0cbd dcd7 e9bc 0103 09bd
00000060: dfd8 44bd 4465 ccbd 2a95 5fbd 6b30 343c
00000070: 510c e13a d654 03bc d5fe dabd 834d 5fbb
00000080: 7fdf 1d3d 9a69 8bbd 0c92 0abb 9ec4 3dbd
00000090: ee64 f2bb e1e5 e8bc b790 58bd 81b8 5abd
000000a0: 61ee 90bc cc72 17bc abbb a8bc 50ff 8b3c
000000b0: 933c 93bd 5d26 7ebd b71a 3dbd 51fa 97bd
000000c0: 9ebf aabb bc00 8dbd 2dda bdbc 7da2 a4bd
000000d0: 9b59 88bc d969 03be a3c7 14bd 6e89 f8bc
000000e0: 477d adbc f4d3 ccbd 84f2 92bd 2f8d 59bd
000000f0: 8f7a 7cbd 1c04 1dbb d2f5 8cbd eaa6 793c

sequential/dense/MatMul f4 [64, 576]
-0.07016469 -0.119788945 -0.02501265 -0.0664811 -0.09816953 -0.16881125 -0.038762257 0.024515424
0.2516484 0.1756314 0.019863918 -0.06465347 -0.030761272 0.015027141 -0.011857263 -0.008611328
-0.014586579 -0.036643945 -0.014781898 -0.23775487 0.03485308 0.018742668 0.0043762266 0.010005538
-0.029073242 0.11615498 0.07356265 0.112151064 0.09169531 -0.0012663424 -0.2165287 -0.10795335
-0.14271554 -0.10473796 -0.13555852 -0.00024621584 -0.17368378 -0.025471613 -0.19704211 0.14366974
0.07121543 0.08238105 0.30482656 0.103488736 0.012495384 -0.030683579 -0.2410332 -0.09297438
0.08500858 0.03321689 -0.10679354 0.078757554 -0.16132611 0.1916821 0.05072333 -0.05019704
-0.19351149 0.042108137 0.17721415 -0.019506464 0.025031436 0.18593478 0.07803279 0.025184358
-0.09598813 -0.0634048 0.08000388 0.084090576 0.07638506 -0.117146194 0.0066715633 0.0698057
-0.00844049 0.18892425 -0.014546919 0.062391352 -0.093038365 0.042631116 -0.13884422 -0.086071
-0.050334323 -0.11779272 -0.21046272 -0.26038852 0.0739455 0.006030386 0.031307817 0.0067013707
0.124779545 -0.025114043 -0.0866009 0.026525082 0.13128544 -0.057256788 -0.17799097 -0.15768574
0.07349237 -0.08618304 0.04081693 0.07665382 -0.15364622 0.0038232089 -0.070974536 0.1111205
0.18886295 0.006648512 -0.014432914 0.09711848 -0.0025197822 -0.0086003775 -0.2807843 0.050569523
0.2907333 0.051319245 -0.16593467 0.26634267 0.053478036 0.15472612 -0.03667539 -0.08382631
0.035559162 0.07056596 0.008458871 0.034710288 0.09457157 0.16998996 0.03850904 0.15509781
-0.016871257 0.16410677 -0.08345317 0.00062456354 -0.066649415 0.02016975 0.05721242 -0.04669166
-0.11628344 0.017750911 -0.010760989 -0.02182968 0.07620254 -0.12496365 -0.049313005 -0.024837648
-0.008974911 0.083646476 -0.08315536 -0.13430153 0.10158425 -0.12472759 -0.042333495 0.05721648
-0.014899408 -0.022536308 -0.0040467787 0.015517176 0.05041143 -0.09656135 0.04949666 -0.010044679
-0.0016972966 0.01928309 0.023266377 -0.016274758 -0.06723297 -0.0016545012 0.13327633 0.123701364
-0.13321975 0.13603663 -0.18501602 0.012769305 0.07127224 -0.056608435 -0.109949134 0.02746007
0.113489546 0.05577924 0.08142788 0.09304157 -0.069244 0.13995361 0.024441872 0.037496086
-0.078272864 0.0009966829 0.09783299 0.14322832 -0.08224899 0.03747893 -0.050853025 0.057927925
0.0699843 -0.029253695 -0.06522967 -0.12344957 -0.010341937 0.022497363 -0.023367528 -0.11878977
0.1839233 0.00066467765 -0.007998623 -0.18020527 -0.107234344 -0.039817944 -0.005664094 0.1984566
0.06870407 0.026745774 -0.14450222 -0.17943954 0.11922311 -0.007027687 0.05407101 -0.14039937
-0.07188467 -0.12413565 0.017064909 0.016912445 0.063154995 -0.015254654 -0.038540557 -0.005563446
-0.09637111 -0.05543118 -0.18893008 0.033673454 -0.18820938 -0.0011076691 0.016920667 -0.15574752
0.059274215 0.071529575 0.15106802 -0.118538074 -0.16020435 -0.20805787 -0.1328378 0.09396304
0.011001967 -0.033545826 -0.026848946 -0.020749403 -0.18515427 0.005230764 0.082545266 0.066702634
0.010682124 -0.007191861 -0.0073458566 -0.15610348 -0.088102244 -0.17355593 -0.059451506 -0.0070786765
00000000: 81b2 8fbd e853 f5bd 54e7 ccbc 3e27 88bd
00000010: 1b0d c9bd dbdc 2cbe 2cc5 1ebd 92d4 c83c
00000020: 0fd8 803e b8d8 333e a8b9 a23c 0a69 84bd
00000030: 10ff fbbc 6634 763c f744 42bc 8716 0dbc
00000040: 8cfc 6ebc f617 16bd c62f 72bc 0376 73be
00000050: 1ac2 0e3d 398a 993c 7366 8f3b 45ee 233c
00000060: 022b eebc aae2 ed3d 04a8 963d 75af e53d
00000070: c0ca bb3d 66fb a5ba b3b9 5dbe a516 ddbd
00000080: 0624 12be db80 d6bd dacf 0abe 8816 81b9
00000090: 29da 31be d8a9 d0bc 68c5 49be 291e 133e
000000a0: 65d9 913d 65b7 a83d 3a12 9c3e e7f1 d33d
000000b0: 70b9 4c3c 215c fbbc 68d1 76be 5a69 bebd
000000c0: fa18 ae3d 6f0e 083d 92b6 dabd a44b a13d
000000d0: ac32 25be 5048 443e 44c3 4f3d 699b 4dbd
000000e0: e027 46be 9579 2c3d a077 353e 05cc 9fbc
000000f0: ba0e cd3c b065 3e3e a8cf 9f3d 6d4f ce3c
00000100: 6d95 c4bd 60da 81bd 13d9 a33d ae37 ac3d
00000110: c56f 9c3d 58ea efbd 219d da3b 4af6 8e3d
00000120: fb49 0abc 5c75 413e 3356 6ebc 138e 7f3d
00000130: e68a bebd f79d 2e3d 2e2d 0ebe fe45 b0bd
00000140: 5d2b 4ebd 4f3d f1bd 8a83 57be a551 85be
00000150: bd70 973d 8b9a c53b a03c 003d 2c97 db3b
00000160: 6b8c ff3d f7bb cdbc d05b b1bd 214b d93c
00000170: b16f 063e 1886 6abd 4443 36be 5f78 21be
00000180: 2b83 963d bc80 b0bd a72f 273d aefc 9c3d
00000190: 6f55 1dbe cd8e 7a3b 195b 91bd 2593 e33d
000001a0: 4a65 413e c3db d93b 0778 6cbc 0ee6 c63d
000001b0: ee22 25bb 99e8 0cbc f6c2 8fbe fd21 4f3d
000001c0: ffda 943e 2134 523d c7ea 29be 115e 883e
000001d0: c90b 5b3d 8670 1e3e ef38 16bd 21ad abbd
000001e0: 7ca6 113d e384 903d 1497 0a3c 602c 0e3d
000001f0: bdae c13d d911 2e3e a8bb 1d3d f6d1 1e3e
00000200: 9735 8abc 9b0b 283e 7fe9 aabd c0b9 233a
00000210: 7d7f 88bd 083b a53c 9257 6a3d c13f 3fbd
00000220: 0326 eebd 5c6a 913c dc4e 30bc 28d4 b2bc
00000230: 1410 9c3d f1ec ffbd 6ffc 49bd 5378 cbbc
00000240: 810b 13bc d84e ab3d 5b4d aabd 5786 09be
00000250: 670b d03d 2e71 ffbd e365 2dbd d45b 6a3d
00000260: a61c 74bc 109e b8bc d79a 84bb c13b 7e3c
00000270: 377c 4e3d f5c1 c5bd 02bd 4a3d 7092 24bc
00000280: d377 deba 92f7 9d3c 2199 be3c a452 85bc
00000290: 70b1 89bd d9db d8ba 9779 083e 2457 fd3d
000002a0: c26a 08be 304d 0b3e d774 3dbe 5936 513c
000002b0: 2ef7 913d 3fde 67bd 032d e1bd f1f3 e03c
000002c0: 356d e83d c678 643d a9c3 a63d 948c be3d
000002d0: cccf 8dbd 0050 0f3e 523a c83c 7f95 193d
000002e0: 864d a0bd 21a3 823a aa5c c83d 72aa 123e
000002f0: 2972 a8bd 8283 193d 434b 50bd d545 6d3d
00000300: ee53 8f3d 72a5 efbc 2297 85bd 21d3 fcbd
00000310: 3a71 29bc 644c b83c 426d bfbc 0d48 f3bd
00000320: 6456 3c3e c33d 2e3a a80c 03bc bb87 38be
00000330: ae9d dbbd 2418 23bd dd99 b9bb 3538 4b3e
00000340: b8b4 8c3d f419 db3c 64f8 13be 00bf 37be
00000350: 3f2b f43d 8348 e6bb 9079 5d3d dac4 0fbe
00000360: 4538 93bd d53a febd b5cb 8b3c f88b 8a3c
00000370: 6857 813d a8ee 79bc b4dc 1dbd 914d b6bb
00000380: 375e c5bd ce0b 63bd e376 41be 2ded 093d
00000390: f6b9 40be 352f 91ba 369d 8a3c 477c 1fbe
000003a0: 85c9 723d 197e 923d 93b1 1a3e 17c4 f2bd
000003b0: 9c0c 24be 1f0d 55be a206 08be b26f c03d
000003c0: 9841 343c 5967 09bd 52f2 dbbc a7fa a9bc
000003d0: 1599 3dbe d466 ab3b 7e0d a93d 649b 883d
000003e0: 1304 2f3c b4a9 ebbb 83b5 f0bb 97d9 1fbe
000003f0: f36e b4bd a5b8 31be 6c83 73bd 3ef4 e7bb

sequential/dense_1/MatMul f4 [10, 64]
0.010697673 0.00031087227 0.12932298 0.0063641286 -0.16036859 -0.39121214 0.24966605 0.19778262
0.27520832 -0.16069348 -0.1773211 0.20903403 -0.3665802 -0.06902802 -0.3585596 0.089047015
0.040494073 -0.10410625 0.023028035 0.023176031 -0.2592958 -0.0065520215 -0.046546817 0.14157243
0.077806555 0.2573848 0.12961972 -0.17450035 0.15482442 0.15342566 -0.24432826 -0.28878012
0.15697703 -0.28399926 0.103869185 -0.270916 0.18296875 -0.39429086 -0.4356525 0.1646535
0.04611676 -0.25347248 -0.11825826 0.24516381 0.21683154 0.2654821 0.1357556 0.24455956
-0.2589833 0.06572866 -0.33649877 -0.012669741 -0.23693043 -0.18596755 -0.024812741 -0.015638504
-0.35315397 0.15725282 -0.40670118 -0.19215426 0.15093462 0.28352752 0.18640313 -0.25366336
-0.24906728 -0.13820617 -0.16326937 -0.2315066 -0.04456272 0.055354618 -0.29845735 0.076668926
-0.2639293 -0.004144705 0.11331864 0.083596334 -0.33797312 -0.07885629 -0.27929696 0.28839728
0.11961632 0.13480784 -0.38303822 -0.07569513 0.04630101 -0.2506532 0.24696335 0.089907184
0.26422262 -0.18661238 0.01837466 -0.21918814 -0.45897424 0.27704874 -0.13158402 0.28431302
0.10096974 -0.055981815 0.07401453 -0.014325949 -0.01519411 0.20513923 -0.3011209 0.030850057
-0.06168252 0.07163721 -0.25165308 0.1665712 0.17992328 0.32137004 0.14423488 -0.2784324
-0.13833639 -0.3778753 0.16586162 -0.4660008 0.10465338 0.19989134 -0.23892128 -0.1574837
-0.0008401733 -0.13493398 -0.3550356 0.3087474 -0.31833616 0.058230158 -0.3236909 0.21431938
-0.060142476 -0.22915794 0.2532075 -0.19204938 -0.085868955 -0.26787943 -0.19735526 -0.23973455
-0.3607146 0.29788324 -0.23344149 0.32578248 0.010087007 0.18039577 -0.2720756 -0.30159527
0.3340256 -0.03652807 -0.065208904 -0.12735915 0.16092622 0.2481101 -0.16440278 0.19766437
-0.2585511 -0.09199055 -0.08364897 -0.20966713 -0.03455397 0.35403633 0.056463357 0.33485153
-0.071365274 0.070727594 -0.31508437 -0.2523729 0.19183636 -0.1725085 -0.3041283 0.17784496
-0.13510154 0.32739466 -0.07145504 -0.09893536 0.19289425 -0.121427506 0.2526976 -0.2024732
-0.25563598 -0.10537849 0.15813118 0.16049713 0.09423527 0.23736578 -0.04144506 -0.21321289
0.093268685 -0.068716496 -0.16523391 -0.18466242 0.20091118 -0.09456474 -0.3856271 0.16662835
0.27593356 0.24352372 -0.1263835 -0.17353144 -0.2275731 -0.047136765 -0.27139091 -0.12206583
-0.23709622 0.20463453 0.08388428 -0.2785955 0.29918146 -0.09094032 -0.058751963 -0.19824614
0.05916461 0.29244253 -0.24258542 0.180056 -0.04528691 -0.33116767 0.24861565 -0.10155742
-0.28706416 0.004653984 0.01951591 0.014579451 0.18501289 0.13452482 -0.15169336 -0.08589858
-0.13886613 0.23939729 0.13153397 -0.1169175 0.16501889 -0.21186535 -0.05630417 -0.1452454
-0.13777639 0.25730753 -0.1033795 0.07190492 0.11798401 -0.049582712 -0.30902666 -0.15757886
0.16470794 -0.049575355 -0.22520332 -0.27767017 0.25282347 0.13515608 0.07449294 -0.16545588
0.08627773 0.31506863 0.14250168 0.06965685 0.2673554 -0.4706654 -0.06671214 -0.2028967
00000000: 4b45 2f3c 92fc a239 3e6d 043e 2e8a d03b
00000010: aa37 24be f54c c8be 75a8 7f3e 8787 4a3e
00000020: 1be8 8c3e d58c 24be aa93 35be 040d 563e
00000030: 66b0 bbbe 905e 8dbd 2095 b7be 485e b63d
00000040: 1ddd 253d a835 d5bd 4aa5 bc3c a9db bd3c
00000050: 6bc2 84be 57b2 d6bb e0a7 3ebd 5df8 103e
00000060: 0b59 9f3d f1c7 833e 08bb 043e 38b0 32be
00000070: 4b8a 1e3e 9e1b 1d3e 3031 7abe fdda 93be
00000080: 96be 203e 5a68 91be 5eb9 d43d 80b5 8abe
00000090: 295c 3b3e 7ee0 c9be d80d dfbe ed9a 283e
000000a0: ede4 3c3d 25c7 81be 6331 f2bd 390c 7b3e
000000b0: 1609 5e3e 45ed 873e 8403 0b3e d26d 7a3e
000000c0: 7699 84be bf9c 863d 9149 acbe bf94 4fbc
000000d0: e49d 72be 476e 3ebe 1744 cbbc 521c 80bc
000000e0: 99d0 b4be e206 213e 233b d0be 16c4 44be
000000f0: 9b8e 1a3e 852a 913e 76e0 3e3e 2ae0 81be
00000100: 7e0b 7fbe eb85 0dbe 1630 27be 1110 6dbe
00000110: 6687 36bd 86bb 623d 67cf 98be 9904 9d3d
00000120: be21 87be 4ed0 87bb 9a13 e83d 8e34 ab3d
00000130: d00a adbe 687f a1bd 0300 8fbe cfa8 933e
00000140: 67f9 f43d 110b 0a3e 961d c4be 0c06 9bbd
00000150: 21a6 3d3d 9e55 80be f6e3 7c3e 4221 b83d
00000160: 3048 873e 5117 3fbe 7486 963c db72 60be
00000170: acfe eabe 55d9 8d3e f6bd 06be 7a91 913e
00000180: 39c9 ce3d 304d 65bd ee94 973d 63b7 6abc
00000190: b7f0 78bc 0510 523e 852c 9abe 42b9 fc3c
000001a0: cfa6 7cbd 88b6 923d acd8 80be a491 2a3e
000001b0: cf3d 383e 9d8a a43e 4fb2 133e b18e 8ebe
000001c0: 0ea8 0dbe df78 c1be a1d7 293e a897 eebe
000001d0: 8354 d63d 51b0 4c3e c8a7 74be 6843 21be
000001e0: 133f 5cba 222c 0abe 3ac7 b5be 2414 9e3e
000001f0: f5fc a2be bf82 6e3d d0ba a5be 8a76 5b3e
00000200: f557 76bd 61a8 6abe 6aa4 813e 98a8 44be
00000210: 10dc afbd 7e27 89be 7f17 4abe f97c 75be
00000220: 96af b8be 2784 983e 490b 6fbe f6cc a63e
00000230: f943 253c abb9 383e 7e4d 8bbe b26a 9abe
00000240: 6705 ab3e 759e 15bd 3f8c 85bd 706a 02be
00000250: d8c9 243e 9310 7e3e 3459 28be 8768 4a3e
00000260: cf60 84be 8b65 bcbd 2750 abbd fbb2 56be
00000270: 7788 0dbd 4044 b53e 1f46 673d a971 ab3e
00000280: f527 92bd a1d9 903d bd52 a1be 0537 81be
00000290: c070 443e 11a6 30be b4b6 9bbe fd1c 363e
000002a0: 0f58 0abe 46a0 a73e 0557 92bd 9f9e cabd
000002b0: 1286 453e fcae f8bd 9461 813e 2255 4fbe
000002c0: b8e2 82be aed0 d7bd 24ed 213e 5c59 243e
000002d0: 6cfe c03d 0410 733e 4cc2 29bd 7b54 5abe
000002e0: a703 bf3d 3cbb 8cbd 1433 29be 2518 3dbe
000002f0: a9bb 4d3e 29ab c1bd ea70 c5be 9fa0 2a3e
00000300: 2a47 8d3e 485e 793e ad6a 01be 3ab2 31be
00000310: ec08 69be 7b12 41bd c0f3 8abe a6fd f9bd
00000320: 5ac9 72be b78b 513e 85cb ab3d 12a4 8ebe
00000330: 502e 993e eb3e babd e6a5 70bd 0901 4bbe
00000340: 9756 723d 07bb 953e 5068 78be 9a60 383e
00000350: c47e 39bd cf8e a9be 1a95 7e3e 56fd cfbd
00000360: 13fa 92be 7380 983b d4df 9f3c a6de 6e3c
00000370: 0574 3d3e e0c0 093e 8155 1bbe 98eb afbd
00000380: ec32 0ebe 9024 753e d7b0 063e 7172 efbd
00000390: b6fa 283e 3bf3 58be 349f 66bd 36bb 14be
000003a0: 4115 0dbe d0bd 833e a2b8 d3bd e342 933d
000003b0: 9aa1 f13d 3e17 4bbd be38 9ebe 5a5c 21be
000003c0: 33a9 283e 870f 4bbd b39b 66be c92a 8ebe
000003d0: 1472 813e 5b66 0a3e c18f 983d 446d 29be
000003e0: 61b2 b03d ad50 a13e f6eb 113e 40a8 8e3d
000003f0: cfe2 883e 0efb f0be 60a0 88bd 27c4 4fbe

sequential/conv2d/Conv2D f4 [32, 3, 3, 1]
0.038317855 -0.0139163695 0.015183728 0.07216282 -0.008213018 -0.039796505 -0.061649833 0.047422916
0.06872422 0.034198336 -0.14751098 0.05493105 -0.2836578 -0.02818558 0.1774593 0.087651215
0.09424468 0.15119188 -0.02470816 -0.028652636 0.08295557 0.080917485 0.16053334 -0.032182746
-0.05227417 -0.08825363 -0.12731 0.120933674 -0.00048254893 -0.18332742 0.11256033 -0.1350627
-0.39020565 0.13858768 0.18599084 0.15187812 -0.059797063 0.14349952 -0.15353425 0.09841998
0.016761385 -0.23601441 0.03774853 0.21244201 -0.11914741 -0.2190568 -0.060775686 -0.070770435
-0.09685382 -0.20550686 -0.09875521 0.26952684 0.24261738 0.12915935 -0.112102255 0.07594219
0.10744966 -0.0046372623 0.27108037 -0.18629172 0.019168237 -0.1453585 -0.12948668 -0.25099784
-0.3093646 -0.16509566 -0.04661211 -0.020136353 0.22310014 0.0644029 0.22987697 0.19951792
0.15514155 0.078893736 0.21124642 -0.11313007 0.050397955 0.15574303 -0.41039774 -0.20465507
-0.035929244 0.08786505 -0.355678 -0.18182905 -0.37430775 -0.21701957 0.1830909 -0.081079215
0.04348121 0.2810144 0.097339414 0.05468405 -0.26812127 0.17053248 -0.035920408 -0.30724716
0.11112799 0.14395794 0.0041275914 0.07093129 0.053758632 0.18177748 -0.16649282 -0.210201
0.043867256 -0.17865688 -0.16310951 -0.12528342 0.01917086 0.09377096 -0.22846282 -0.10596137
0.06288948 0.072597556 -0.06385388 0.081172176 0.043627497 -0.022215907 -0.17868873 0.13441658
-0.2973319 0.0352216 0.18089224 -0.17220074 0.20163147 0.0915129 -0.44932202 0.11630423
0.2688627 -0.4333102 0.03844702 0.28526965 -0.31665018 -0.26865557 0.11026314 0.11961073
0.15971023 0.25225976 0.13308892 -0.0055328296 0.23547848 -0.3524988 -0.38967022 -0.30132464
-0.03873076 -0.09429385 -0.28888243 0.18937626 -0.08946342 -0.21413521 0.23481534 0.12369429
0.087769784 -0.015837815 0.02311095 -0.14125122 0.08153289 0.18152204 -0.00366806 -0.067897104
-0.020175181 0.12328503 -0.055586882 0.14078686 -0.049168885 0.029027056 0.12681127 0.15781072
-0.18984166 -0.03580303 0.069257155 0.20181973 0.057372604 -0.25438157 0.30008167 0.022640968
-0.49500266 0.052176893 -0.28312302 -0.39625427 0.0028161916 -0.107207716 -0.23806342 -0.0056962143
-0.009007107 0.18528439 0.1471093 -0.094794385 0.1165388 -0.061627857 -0.22086877 -0.02791356
0.0075669666 -0.19848037 0.094763786 -0.0106558595 0.093750656 0.025154036 0.2146665 0.09913096
-0.097662956 0.036873635 -0.19535418 -0.37212572 -0.25087765 -0.4078552 0.20180294 -0.28746057
-0.011251917 0.1270927 -0.16778961 0.08501537 0.19106832 0.09412626 0.10412646 0.08390247
-0.07099078 0.07176073 0.038808454 0.09814627 -0.021137537 -0.09033453 -0.09252121 -0.05811114
0.008200412 -0.24081036 -0.11011092 -0.111513056 0.13716213 -0.122873865 -0.23711714 0.14698765
0.27625322 0.00990839 -0.08393811 0.046834126 0.09121804 -0.026369775 0.15625906 0.022598693
0.08486905 0.12487025 -0.02437514 0.019079579 0.19581369 0.0014088192 0.12085408 0.028078511
-0.27560735 0.14588693 0.027244331 -0.3091672 0.10642083 -0.11541344 -0.22399765 0.0895907
00000000: 2ff3 1c3d 7c01 64bc 2cc5 783c 1aca 933d
00000010: e58f 06bc a901 23bd 8984 7cbd 883e 423d
00000020: 49bf 8c3d 8e13 0c3d 1e0d 17be 61ff 603d
00000030: 983b 91be 72e5 e6bc e4b7 353e 7b82 b33d
00000040: 5b03 c13d 0bd2 1a3e c468 cabc efb8 eabc
00000050: 9ce4 a93d 11b8 a53d da62 243e 0ed2 03bd
00000060: 711d 56bd 52be b4bd 8d5d 02be 13ac f73d
00000070: 9ffe fcb9 2fba 3bbe 0886 e63d e04d 0abe
00000080: 09c9 c7be eee9 0d3e 6274 3e3e f085 1b3e
00000090: c4ed 74bd 8af1 123e 1538 1dbe 6a90 c93d
000000a0: 2c4f 893c c3ad 71be 349e 1a3d 668a 593e
000000b0: 8f03 f4bd 6d50 60be edef 78bd 17f0 90bd
000000c0: 4c5b c6bd 6470 52be 2c40 cabd 6cff 893e
000000d0: b170 783e 5942 043e de95 e5bd 9487 9b3d
000000e0: 910e dc3d 2df4 97bb 0ccb 8a3e 42c3 3ebe
000000f0: b506 9d3c dcd8 14be 2898 04be ca82 80be
00000100: 0965 9ebe d60e 29be 57ec 3ebd fef4 a4bc
00000110: 5d74 643e abe5 833d de64 6b3e 6d4e 4c3e
00000120: 6ddd 1e3e 0a93 a13d fb50 583e bdb0 e7bd
00000130: 166e 4e3d 1a7b 1f3e a71f d2be 1991 51be
00000140: 8b2a 13bd 97f2 b33d 6d1b b6be 6531 3abe
00000150: 44a5 bfbe 613a 5ebe 2e7c 3b3e dc0c a6bd
00000160: 5a19 323d 1fe1 8f3e e359 c73d 62fc 5f3d
00000170: 3147 89be 11a0 2e3e 4721 13bd 804f 9dbe
00000180: 1297 e33d b669 133e bf40 873b 6d44 913d
00000190: 0332 5c3d e023 3a3e 187d 2abe ee3e 57be
000001a0: 27ae 333d d4f1 36be 2e06 27be 4c4a 00be
000001b0: 350c 9d3c fd0a c03d 28f2 69be 4602 d9bd
000001c0: 33cc 803d 07ae 943d d3c5 82bd 993d a63d
000001d0: bfb2 323d 22fe b5bc 2efa 36be 80a4 093e
000001e0: e33b 98be 8644 103d d13b 393e 6455 30be
000001f0: 7b78 4e3e 1e6b bb3d 890d e6be ea30 ee3d
00000200: 5fa8 893e d6da ddbe 9f7a 1d3d dd0e 923e
00000210: f91f a2be 398d 89be a4d1 e13d 78f6 f43d
00000220: 148b 233e 3128 813e 7648 083e bd4c b5bb
00000230: 4521 713e b97a b4be db82 c7be 3947 9abe
00000240: 25a4 1ebd 221d c1bd 66e8 93be daeb 413e
00000250: 9938 b7bd 4346 5bbe 6f73 703e 6f53 fd3d
00000260: a5c0 b33d 4ebe 81bc 2d53 bd3c 29a4 10be
00000270: b7fa a63d eae0 393e d663 70bb a30d 8bbd
00000280: 6c46 a5bc dd7c fc3d 12af 63bd 6e2a 103e
00000290: 5065 49bd 26ca ed3c d0da 013e 2299 213e
000002a0: da65 42be 33a6 12bd b2d6 8d3d d5a9 4e3e
000002b0: 89ff 6a3d 4d3e 82be 4ea4 993e 8d79 b93c
000002c0: fd70 fdbe 70b7 553d 80f5 90be d7e1 cabe
000002d0: db8f 383b b88f dbbd e6c6 73be 4fa7 babb
000002e0: 8b92 13bc 31bb 3d3e d2a3 163e 8f23 c2bd
000002f0: e5ab ee3d 7e6d 7cbd 6c2b 62be faaa e4bc
00000300: 51f4 f73b 703e 4bbe 8413 c23d ea95 2ebc
00000310: 5800 c03d d60f ce3c 89d1 5b3e 2c05 cb3d
00000320: 8403 c8bd cf08 173d ed0a 48be 4387 bebe
00000330: 0973 80be 66d2 d0be 6ea5 4e3e 082e 93be
00000340: f659 38bc 9724 023e 0ad1 2bbe 8a1c ae3d
00000350: 6aa7 433e 45c5 c03d 4140 d53d 0fd5 ab3d
00000360: 9d63 91bd 4af7 923d 9df5 1e3d e900 c93d
00000370: a128 adbc 4f01 b9bd c37b bdbd f205 6ebd
00000380: 055b 063c fe96 76be d681 e1bd f560 e4bd
00000390: 3b74 0c3e 4ba5 fbbd d6ce 72be ee83 163e
000003a0: 1071 8d3e cd56 223c bee7 abbd 24d5 3f3d
000003b0: 86d0 ba3d 6d05 d8bc 6002 203e e520 b93c
000003c0: d3cf ad3d f9bb ff3d 60ae c7bc c74c 9c3c
000003d0: 6283 483e 21a8 b83a 5882 f73d e804 e63c
000003e0: 681c 8dbe 6263 153e 812f df3c 2a4b 9ebe
000003f0: 2af3 d93d e25d ecbd a45f 65be 547b b73d

sequential/conv2d_1/Conv2D f4 [64, 3, 3, 32]
0.031766593 -0.19408959 -0.09468023 0.15404473 0.08386439 0.2022502 -0.09679167 -0.03285255
-0.07837783 -0.048049215 0.08919368 -0.18844202 0.008314064 -0.13119102 -0.041275036 -0.24330571
0.11429679 0.05248922 -0.09015982 -0.1406029 -0.07211322 0.06906243 -0.1787081 -0.1469294
-0.04596304 0.10613987 -0.039369516 -0.03876775 9.1144306e-05 -0.069593675 0.110055886 0.15211223
-0.016354103 -0.14247683 0.07448392 0.0017626546 -0.009389789 0.12592028 -0.019824376 -0.104017265
0.032469627 -0.04715498 -0.09120353 -0.10258117 -0.139967 -0.0900813 -0.071658574 0.054231428
-0.059914492 -0.15157084 -0.15864897 -0.06435968 -0.109646745 0.029770331 -0.10338592 -0.06238647
0.023749622 0.15013371 -0.11326016 0.036023207 -0.13117044 -0.01964046 -0.05460774 -0.11690103
-0.0537683 -0.106419764 -0.0036845203 -0.20581937 -0.24284059 -0.2181158 -0.045452613 -0.11790492
0.17200474 -0.10228936 -0.2010682 0.059629787 -0.0190448 0.027830184 0.14057973 0.19542345
-0.29379782 -0.00270188 0.092939064 -0.26331443 -0.06807952 -0.18924274 -0.025357315 0.024014503
0.055442672 -0.1928384 -0.0055008354 -0.06220541 -0.14072882 0.12258007 -0.2935618 -0.39469007
0.06489579 0.033471033 -0.06241505 -0.083592735 0.14678437 -0.13676897 0.049506992 -0.19008541
0.06476137 0.039369807 0.053685095 0.04249116 0.056381095 -0.0019965838 0.12503807 -0.023366956
0.05666797 0.059026293 0.13388754 -0.11340545 -0.14461714 -0.011616583 -0.3878048 -0.04955506
0.029036064 0.05003196 -0.09185617 -0.069123246 0.103282936 0.14830446 0.07421335 -0.012954011
-0.009690804 -0.061901808 -0.01162084 0.2552381 0.2484774 0.101446815 0.023735281 -0.09353752
-0.14281167 -0.05846573 0.23902486 -0.18687366 -0.008680809 0.042367168 -0.0105383955 -0.23451217
0.14779493 0.026459321 0.0066394676 0.013476928 -0.05207454 0.04994736 -0.29176146 -0.21892086
0.05969953 0.15448993 -0.12492918 0.19149765 0.10394965 -0.19257325 0.25323004 0.18568575
-0.13537097 0.10387343 -0.11749612 -0.1041484 -0.12139058 -0.02235335 -0.06778021 -0.06418987
0.14215003 -0.015547244 0.022790428 0.019919861 -0.1565888 0.21989365 0.123998016 -0.0048531494
-0.056249827 -0.16790117 -0.04299789 -0.057677597 0.050383132 0.056927033 -0.13414338 0.055095654
-0.03408108 0.034385353 -0.0075633596 -0.08094303 -0.1592175 0.1413839 -0.029375372 -0.010897444
0.03639606 0.206464 -0.0024913838 -0.15372704 0.06516796 -0.13380657 -0.02770171 -0.1338347
0.10534892 0.13151745 -0.03480472 0.04779314 0.065786086 0.2577182 0.2222125 -0.030117882
-0.1587165 0.039810844 -0.0015331792 0.07089918 -0.052095816 -0.050226968 -0.1847198 0.07696036
-0.05832612 -0.3679845 0.06328747 -0.050875757 -0.021159096 0.1734838 -0.24251041 -0.17370786
0.11808818 -0.018887615 0.03925121 0.10583746 0.2015656 -0.20004377 -0.00469062 -0.072353415
-0.07154308 -0.06400845 0.1662638 -0.046659097 0.11917966 0.047621552 0.16378534 -0.29958192
0.12294386 0.018781565 0.08168942 0.14983991 -0.05106046 -0.12903279 -0.37255263 0.14798756
0.031153424 -0.014722446 0.13145143 0.05832127 0.16425397 -0.076059386 0.036172334 0.06758675
00000000: b01d 023d 6cbf 46be b5e7 c1bd e7bd 1d3e
00000010: 18c1 ab3d ad1a 4f3e b63a c6bd 6590 06bd
00000020: 8e84 a0bd 41cf 44bd 2dab b63d f2f6 40be
00000030: b637 083c f056 06be 0310 29bd 2225 79be
00000040: 6f14 ea3d f0fe 563d b6a5 b8bd 35fa 0fbe
00000050: 19b0 93bd 9a70 8d3d 42ff 36be a974 16be
00000060: be43 3cbd dc5f d93d ee41 21bd efca 1ebd
00000070: ba24 bf38 2187 8ebd fb64 e13d 4fc3 1b3e
00000080: 0af9 85bc 72e5 11be 078b 983d e008 e73a
00000090: a1d7 19bc 3ff1 003e bb66 a2bc 0107 d5bd
000000a0: dffe 043d 9525 41bd ebc8 babd 1416 d2bd
000000b0: 8253 0fbe 8b7c b8bd bbc1 92bd c621 5e3d
000000c0: e668 75bd 6335 1bbe e074 22be 02cf 83bd
000000d0: 798e e0bd e9e0 f33c ffbb d3bd f588 7fbd
000000e0: 918e c23c a7bc 193e f1f4 e7bd 128d 133d
000000f0: 8b51 06be 08e5 a0bc 5eac 5fbd cf69 efbd
00000100: 263c 5cbd 9bf2 d9bd fe77 71bb 50c2 52be
00000110: 34ab 78be c059 5fbe 852c 3abd 2278 f1bd
00000120: 0322 303e 157d d1bd d2e4 4dbe 5d3e 743d
00000130: d703 9cbc 20fc e33c 22f4 0f3e 161d 483e
00000140: ab6c 96be 0612 31bb d656 be3d 26d1 86be
00000150: 466d 8bbd d9c8 41be 25ba cfbc 10ba c43c
00000160: db17 633d 6e77 45be 5a40 b4bb 1acb 7ebd
00000170: 371b 10be 420b fb3d bb4d 96be d114 cabe
00000180: 15e8 843d ec18 093d eca6 7fbd ab32 abbd
00000190: a44e 163e 2a0d 0cbe d8c7 4a3d c0a5 42be
000001a0: 9ca1 843d 3c42 213d e7e4 5b3d 360b 2e3d
000001b0: ddef 663d 1ed9 02bb fb09 003e 0f6c bfbc
000001c0: ac1c 683d 8ec5 713d d119 093e 1e41 e8bd
000001d0: 8416 14be 7b53 3ebc 5a8e c6be 3ffa 4abd
000001e0: 0add ed3c 50ee 4c3d 161f bcbd 7d90 8dbd
000001f0: 0186 d33d 20dd 173e 2bfd 973d 0f3d 54bc
00000200: 2ec6 1ebc c08c 7dbd 5665 3ebc 91ae 823e
00000210: dc70 7e3e 59c3 cf3d 7e70 c23c 9990 bfbd
00000220: 393d 12be c379 6fbd efc2 743e cf5b 3fbe
00000230: f439 0ebc 3289 2d3d 3ca9 2cbc f523 70be
00000240: 8e57 173e 38c1 d83c e48f d93b 55ce 5c3c
00000250: 1d4c 55bd 9a95 4c3d c261 95be ca2c 60be
00000260: 7f87 743d 9c32 1e3e dfda ffbd f617 443e
00000270: 8ee3 d43d ec31 45be 5ea7 813e 6824 3e3e
00000280: b09e 0abe 98bb d43d cea1 f0bd c24b d5bd
00000290: a09b f8bd 5f1e b7bc 5ad0 8abd fb75 83bd
000002a0: c78f 113e deb9 7ebc feb2 ba3c fa2e a33c
000002b0: d058 20be cd2b 613e acf2 fd3d 2b07 9fbb
000002c0: 3866 66bd 49ee 2bbe 8e1e 30bd 583f 6cbd
000002d0: 8b5e 4e3d 522c 693d e25c 09be fbab 613d
000002e0: 9a98 0bbd a8d7 0c3d 0fd6 f7bb 76c5 a5bd
000002f0: ea09 23be f1c6 103e 9fa4 f0bc 318b 32bc
00000300: 0914 153d 4c6b 533e 7c46 23bb 9f6a 1dbe
00000310: c876 853d 9704 09be b2ee e2bc f70b 09be
00000320: 2dc1 d73d 83ac 063e 658f 0ebd bdc2 433d
00000330: dbba 863d a4f3 833e ac8b 633e c7b9 f6bc
00000340: 9486 22be b210 233d f5f4 c8ba 9733 913d
00000350: 6c62 55bd cbba 4dbd 3027 3dbe 659d 9d3d
00000360: 5fe7 6ebd 7768 bcbe dc9c 813d 1963 50bd
00000370: d755 adbc bda5 313e a654 78be 79e0 31be
00000380: 37d8 f13d 33ba 9abc e0c5 203d 4fc1 d83d
00000390: 3667 4e3e 46d8 4cbe c6b3 99bb 072e 94bd
000003a0: 2e85 92bd dd16 83bd 0f41 2a3e 9c1d 3fbd
000003b0: 7714 f43d d10e 433d 58b7 273e cd62 99be
000003c0: fec9 fb3d ccdb 993c c84c a73d a26f 193e
000003d0: c624 51bd 2c21 04be 38bf bebe 0d8a 173e
000003e0: 7735 ff3c 6a36 71bc 349b 063e 49e2 6e3d
000003f0: 3132 283e 06c5 9bbd 7129 143d ec6a 8a3d

sequential/conv2d_2/Conv2D f4 [64, 3, 3, 64]
0.19815026 -0.029840725 -0.060789622 -0.061839383 0.030507509 0.06307939 0.1605013 0.07590677
-0.065827385 0.16900079 0.032488216 0.20956045 0.012181826 -0.12954423 0.101041965 0.06330395
-0.06345035 0.06374452 0.056873385 -0.11063538 -0.12560302 0.12695526 0.122503705 0.0123721585
0.017356033 0.07548873 -0.063050665 -0.25123733 0.20955208 -0.03350375 -0.10852363 -0.0016039811
0.083312094 0.026702119 0.09618489 -0.28378433 0.051435996 -0.17042108 0.08596635 0.18370861
0.16503592 -0.13892163 0.13723017 0.011851845 -0.01529818 -0.09660974 0.026868572 0.006201527
-0.014436905 -0.057295285 0.17413083 0.05272745 -0.058234688 -0.071376495 -0.07166986 -0.123563625
-0.033677764 -0.023952063 -0.0847776 -0.08182578 -0.048613537 -0.029819125 -0.009859223 -0.019034054
0.08117738 -0.07070621 -0.14572881 -0.20726381 -0.1106025 -0.08079586 0.0949229 -0.07225471
-0.10541641 0.035975162 -0.09984142 -0.043060075 -0.0827511 -0.14405432 0.20500323 -0.04470282
-0.13591787 -0.024822809 0.09521878 -0.17284329 -0.06274157 0.00763509 -0.09511014 0.16882588
-0.08369905 -0.024060316 -0.0073872604 -0.1426141 0.19914322 0.07339298 -0.113278694 -0.021893056
-0.0038827038 -0.14800791 -0.046532698 -0.09800034 -0.104259446 -0.11694836 -0.054763913 -0.010887605
0.09483568 -0.075421736 0.0073286686 0.25233445 -0.055365916 -0.13824022 -0.043143746 -0.021694332
-0.16076964 -0.05609613 0.1948143 -0.0060432106 -0.009305933 -0.010923708 -0.089992635 -0.15204273
-0.01553309 -0.030814663 0.014126314 -0.12571831 -0.01585797 -0.13163349 -0.04019071 0.16239406
0.06560081 -0.068105854 -0.09343766 -0.10874024 -0.078317285 0.07319715 0.22985128 -0.058577504
0.040485695 0.04710671 0.08699496 0.06213832 0.021406021 -0.10376322 -0.053493466 -0.054886945
-0.06611587 -0.110402085 -0.06109322 -0.124457985 -0.2235811 0.15783897 -0.106444985 0.21842703
0.034395147 -0.13460998 -0.1688539 -0.08147772 -0.040205967 0.046765126 -0.00039529076 -0.056769386
0.14718324 -0.1410474 -0.06046681 -0.04339087 -0.035331752 -0.20931417 -0.0077447155 -0.08071039
0.045511805 -0.10136944 0.019500654 0.17800568 0.052414816 -0.18143412 0.002035759 -0.08586948
-0.20630556 0.036029715 0.052200682 0.03728279 -0.19161639 0.0039552115 -0.17384608 -0.1248847
-0.052531093 -0.07520879 -0.0766704 -0.17403056 -0.14006776 -0.06362283 -0.014278206 -0.040272035
0.06981146 -0.031241473 -0.07354233 -0.038972117 0.079961576 0.103780985 0.019277385 0.0358023
-0.009446379 0.098343864 0.1388071 0.028955488 0.11146502 -0.11249652 -0.12400267 -0.07043231
-0.0110844085 -0.03835931 0.057491608 -0.10582043 -0.11905009 0.08232408 -0.090424314 0.032221492
-0.083455265 0.047922403 0.04732589 -0.038567986 0.010234105 -0.0038570508 -0.1224357 -0.07211088
0.053024553 -0.054081418 -0.033508763 -0.10808509 0.021166105 -0.12230197 -0.0712716 0.07043436
0.24843056 -0.025603935 0.1329197 -0.16975528 -0.048227243 -0.22309999 0.012347152 -0.10297697
-0.12165391 -0.036816142 0.12989195 -0.026946967 0.033115517 0.108639784 -0.118096754 -0.07332243
-0.055689074 0.025189469 -0.04942126 -0.047163133 -0.09237224 0.017454747 -0.045180228 -0.04299931
00000000: e7e7 4a3e 8974 f4bc 8afe 78bd 4b4b 7dbd
00000010: e2ea f93c c42f 813d 745a 243e 0275 9b3d
00000020: 82d0 86bd 8b0e 2d3e 5d12 053d 0497 563e
00000030: 4896 473c 3ea7 04be 17ef ce3d 80a5 813d
00000040: 42f2 81bd 7d8c 823d 11f4 683d cd94 e2bd
00000050: 149e 00be 8f00 023e 39e3 fa3d 98b4 4a3c
00000060: 3d2e 8e3c d699 9a3d b520 81bd 2ea2 80be
00000070: d294 563e 3a3b 09bd a341 debd ad3c d2ba
00000080: 889f aa3d 67be da3c 95fc c43d 2e4c 91be
00000090: 8dae 523d dd82 2ebe 200f b03d 1c1e 3c3e
000000a0: 2dff 283e 7941 0ebe 1186 0c3e 3e2e 423c
000000b0: 38a5 7abc 54db c5bd 7b1b dc3c 2e36 cb3b
000000c0: c588 6cbc 76ae 6abd 5a4f 323e bdf8 573d
000000d0: 7f87 6ebd d72d 92bd a6c7 92bd ed0e fdbd
000000e0: b2f1 09bd 1e37 c4bc e19f adbd 4694 a7bd
000000f0: fd1e 47bd 3d47 f4bc 9488 21bc 4eed 9bbc
00000100: 5440 a63d 6bce 90bd ef39 15be f73c 54be
00000110: 9083 e2bd 4d78 a5bd f066 c23d 47fa 93bd
00000120: 8fe4 d7bd b15a 133d a979 ccbd c35f 30bd
00000130: 6979 a9bd fa82 13be 5eec 513e 4e1a 37bd
00000140: 0e2e 0bbe 3459 cbbc 1002 c33d d5fd 30be
00000150: a77e 80bd c72f fa3b 1bc9 c2bd b1e0 2c3e
00000160: 686a abbd 241a c5bc d510 f2bb 6e09 12be
00000170: 33ec 4b3e 0f4f 963d a9fe e7bd 1159 b3bc
00000180: f674 7ebb 638f 17be 1299 3ebd 67b4 c8bd
00000190: fa85 d5bd 9f82 efbd 2050 60bd ed61 32bc
000001a0: 3639 c23d b676 9abd 5425 f03b fb31 813e
000001b0: 5fc7 62bd d88e 0dbe 7fb7 30bd 50b8 b1bc
000001c0: cca0 24be 0ec5 65bd 667d 473e 2006 c6bb
000001d0: e977 18bc 5af9 32bc 0f4e b8bd 17b1 1bbe
000001e0: 807e 7ebc 086f fcbc 0e72 673c 4dbc 00be
000001f0: 93e8 81bc eeca 06be 049f 24bd a14a 263e
00000200: b859 863d 157b 8bbd 3e5c bfbd 34b3 debd
00000210: d064 a0bd 63e8 953d 225e 6b3e f7ee 6fbd
00000220: 54d4 253d f7f2 403d 6a2a b23d c084 7e3d
00000230: ae5b af3c d081 d4bd f71b 5bbd 22d1 60bd
00000240: c267 87bd 7d1a e2bd e23c 7abd d4e3 febd
00000250: 72f2 64be 8aa0 213e d4ff d9bd 56ab 5f3e
00000260: ede1 0c3d 33d7 09be 09e8 2cbe cadd a6bd
00000270: 03af 24bd ca8c 3f3d 073f cfb9 0487 68bd
00000280: 34b7 163e bb6e 10be 0cac 77bd a0ba 31bd
00000290: 07b8 10bd 7456 56be 62c7 fdbb 7d4b a5bd
000002a0: 966a 3a3d c89a cfbd d6bf 9f3c 1f47 363e
000002b0: ebb0 563d dec9 39be 5e6a 053b 57dc afbd
000002c0: c441 53be e593 133d 62d0 553d d7b5 183d
000002d0: 1637 44be b89a 813b b504 32be 8dc3 ffbd
000002e0: d82a 57bd 1107 9abd 5f05 9dbd 1135 32be
000002f0: ec6d 0fbe b04c 82bd 23ef 69bc 4af4 24bd
00000300: 50f9 8e3d 1eee ffbc 5c9d 96bd 3aa1 1fbd
00000310: e5c2 a33d 208b d43d 9beb 9d3c 6fa5 123d
00000320: fcc4 1abc 8268 c93d 7323 0e3e 0f34 ed3c
00000330: c647 e43d 9364 e6bd 1df5 fdbd d13e 90bd
00000340: 619b 35bc a71e 1dbd 527c 6b3d 62b8 d8bd
00000350: 89d0 f3bd 8799 a83d 6230 b9bd affa 033d
00000360: 98ea aabd 484a 443d cbd8 413d 77f9 1dbd
00000370: f3ac 273c 93c6 7cbb 91bf fabd deae 93bd
00000380: 4630 593d 7a84 5dbd 7c40 09bd b75b ddbd
00000390: 8a64 ad3c 7579 fabd d8f6 91bd e43f 903d
000003a0: 9564 7e3e 58bf d1bc 1a1c 083e 54d4 2dbe
000003b0: ee89 45bd 5374 64be b64b 4a3c 97e5 d2bd
000003c0: af25 f9bd 86cc 16bd 6502 053e e3bf dcbc
000003d0: 23a4 073d 897e de3d b6dc f1bd 122a 96bd
000003e0: 3a1a 64bd 255a ce3c f26d 4abd 212e 41bd
000003f0: a82d bdbd 42fd 8e3c e70e 39bd 0b20 30bd
