MNIST/keras_model.tflite (tflite, 409000 bytes, 4 tensors)

sequential/dense/BiasAdd/ReadVariableOp f4 [128]
0.058266502 -0.01683149 -0.11616102 0.059009936 -0.111195736 0.1694148 0.06861875 0.056533847
0.006542011 -0.035206746 -0.033609588 -0.110850625 -0.03362128 -0.050447226 -0.079658315 -0.01932319
-0.0019480822 -0.06523129 0.09593639 -0.009779878 0.003573275 0.063477546 -0.02977086 0.041580826
0.12520961 -0.15627366 -0.090155974 0.019721324 0.1560715 0.005686399 0.12036292 0.1123065
-0.017318293 -0.053128492 -0.042906348 -0.028518515 -0.078145504 -0.113908954 0.0795664 0.06370792
-0.025690926 0.047368914 -0.024883898 -0.006144162 0.061583508 7.0128706e-05 -0.020069603 -0.01762732
0.04724484 0.055090122 0.039068334 0.17918916 0.17740345 0.046664342 0.019847108 0.018042855
0.009733706 -0.04905102 0.0096092215 0.101529785 0.028088005 0.186323 -0.05507719 -0.07491538
-0.07918024 -0.026862744 0.093180485 0.073827475 0.018830393 0.14723036 -0.0484992 0.13958693
0.10348296 0.1284105 -0.08663341 0.08858026 0.012299127 0.10744294 0.02904383 0.04384731
0.10365858 0.17602561 -0.039862815 -0.061740093 0.20191966 0.10236078 0.032396827 -0.07971636
0.14375608 -0.087067954 0.14518416 -0.03620031 0.014024949 -0.11338137 -0.09735605 0.008745523
0.080091745 -0.0645163 0.014930036 0.107843235 -0.028348781 -0.030197699 0.0104589015 0.060154922
-0.01486559 0.03469849 0.17559774 0.09830247 -0.0057747867 -0.03823742 -0.003624552 -0.018594123
0.03626301 -0.045527626 0.103534795 -0.06243917 -0.018608205 -0.039781548 0.16353376 0.02052168
-0.017938897 0.020034479 0.002932901 0.017911512 0.04695717 0.15974988 0.15619053 -0.02311389
00000000: dba8 6e3d 31e2 89bc d4e5 edbd 67b4 713d
00000010: 97ba e3bd 137b 2d3e fd87 8c3d 0990 673d
00000020: 5e5e d63b f334 10bd 35aa 09bd a705 e3bd
00000030: 78b6 09bd c0a1 4ebd e623 a3bd ab4b 9ebc
00000040: cb56 ffba fc97 85bd 4c7a c43d c83b 20bc
00000050: 9b2d 6a3b 8400 823d 05e2 f3bc a850 2a3d
00000060: f336 003e 3406 20be b2a3 b8bd 9d8e a13c
00000070: 35d1 1f3e f954 ba3b d680 f63d f300 e63d
00000080: 18df 8dbc 439d 59bd 91be 2fbd a99f e9bc
00000090: c00a a0bd 1949 e9bd b5f3 a23d 4c79 823d
000000a0: c775 d2bc e805 423d 51d9 cbbc f754 c9bb
000000b0: fd3e 7c3d 1012 9338 0269 a4bc 2b67 90bc
000000c0: ce83 413d 2ea6 613d 1e06 203d 5d7d 373e
000000d0: 40a9 353e 1c23 3f3d 6796 a23c 9cce 933c
000000e0: 1f7a 1f3c b9e9 48bd ff6f 1d3c d9ee cf3d
000000f0: d118 e63c 75cb 3e3e 9f98 61bd 3c6d 99bd
00000100: 4029 a2bd 420f dcbc 69d5 be3d dc32 973d
00000110: 3242 9a3c 8ec3 163e 19a7 46bd e0ef 0e3e
00000120: e0ee d33d 0b7e 033e db6c b1bd 9169 b53d
00000130: 4782 493c 0b0b dc3d 54ed ed3c 3d99 333d
00000140: f34a d43d 0f40 343e 3147 23bd 2ee3 7cbd
00000150: 07c4 4e3e 87a2 d13d 89b2 043d 5542 a3bd
00000160: cb34 133e af50 b2bd 28ab 143e c746 14bd
00000170: e6c8 653c 7e34 e8bd 9c62 c7bd 6249 0f3c
00000180: 2407 a43d 1f21 84bd 1c9d 743c eadc dc3d
00000190: b43b e8bc 2a61 f7bc d05b 2b3c 0265 763d
000001a0: ce8e 73bc 0120 0e3d e5cf 333e ce52 c93d
000001b0: 6c3a bdbb d79e 1cbd e489 6dbb b452 98bc
000001c0: 8688 143d 2d7b 3abd 0d0a d43d 37c0 7fbd
000001d0: 3c70 98bc faf1 22bd 6575 273e 151d a83c
000001e0: 98f4 92bc 591f a43c ea35 403b 2abb 923c
000001f0: 2956 403d 7995 233e 69f0 1f3e 5759 bdbc

sequential/dense_1/BiasAdd/ReadVariableOp f4 [10]
-0.08110382 -0.06600935 0.008646089 -0.13174674 0.08901534 0.030943422 0.008237612 -0.05029092
0.15552174 -0.031305283
00000000: c219 a6bd e92f 87bd 53a8 0d3c 9ee8 06be
00000010: ad4d b63d 0f7d fd3c 0df7 063c dafd 4dbd
00000020: 1741 1f3e f839 00bd

sequential/dense/MatMul f4 [128, 784]
0.038307525 0.044780962 -0.044367995 0.045885973 0.011855289 -0.041093405 -0.028037362 -0.021524012
0.05009643 0.048031606 0.046641894 -0.016067363 0.14414153 0.106161125 -0.045033254 -0.07907377
-0.06239162 0.070501246 0.06531478 -0.032143734 0.011657901 0.049054928 0.040854655 -0.044209443
0.075655125 0.03547387 -0.039995547 -0.0288786 -0.04026402 -0.024912119 0.015108973 -0.014346972
0.012080543 0.09976207 0.07823693 0.1773163 0.08772014 0.16500466 0.10823509 0.11570259
0.16285871 0.25956434 0.27781424 0.13982391 -0.028719975 0.038749967 0.17204025 0.007213024
0.059706878 0.036272272 -0.0022350436 0.035867114 -0.009246394 -0.066129155 -0.03202554 -0.06101777
-0.016618468 0.0044041798 -0.05288326 0.0020140857 -0.046355955 0.009946065 0.07663299 0.12918012
0.21258196 -0.04068415 -0.02254147 0.13499834 -0.13678914 -0.0655812 0.024297692 0.07982697
0.18034647 0.0890005 0.09023693 -0.026933104 -0.09494291 -0.10984047 0.020443724 -0.098048426
-0.16261123 -0.09684451 -0.014185786 0.04604479 0.07860995 -0.029311892 0.04783755 -0.014318716
-0.0029374834 0.011509341 0.13577667 0.06994958 0.30396855 -0.08914525 -0.14639358 0.030834021
-0.06483463 -0.056780677 -0.23068973 -0.09978848 -0.14807701 -0.100733414 -0.050901596 -0.18311393
0.041538898 0.11252383 0.16103616 -0.04515213 -0.054818697 0.13331756 0.12284831 -0.05075708
0.056209393 0.0061106533 -0.052456457 0.21716106 0.027506575 -0.051363613 -0.05565493 -0.09657668
-0.08595084 0.0034792395 0.033567697 0.034646906 0.07831814 -0.11606421 -0.0783834 0.0010582387
0.08985409 0.023197409 -0.12020303 -0.1279848 -0.06800191 -0.017327286 0.057025343 0.23646632
0.2179026 0.36088452 0.21865056 0.117064215 -0.07532028 0.052427463 0.041491188 -0.0031736516
-0.08235967 -0.08918767 -0.016341481 0.049223166 -0.05989228 0.03320098 -0.024361799 0.09203049
0.028875189 -0.043296553 -0.08018722 -0.02759767 0.022588354 0.14615506 0.0011821089 -0.022510238
0.054092746 0.14819679 0.002194963 0.033994228 0.11910063 0.105556585 0.15815946 0.048360102
-0.047747016 0.049731053 0.15483305 0.054117084 0.043059435 0.053461768 0.014166481 0.032360725
0.07093914 0.046752654 0.0860894 0.08925099 -0.025633331 -0.02692884 -0.05065902 -0.025477454
0.046266697 0.023496814 0.011820551 -0.050163284 -0.031912267 -0.027210671 -0.027614482 0.0042502326
0.03909961 0.066828325 -0.0053566913 -0.075813025 -0.070075475 -0.07425962 0.16921885 -0.10314983
0.044653438 0.12154247 -0.039507106 0.11776357 0.2023276 0.07736344 0.13848895 0.08740929
0.030804453 -0.017185293 0.002946665 0.057681482 -0.04239195 0.0051667974 0.13237281 0.09630645
0.02191625 0.015158262 0.09286896 0.09806504 -0.120265655 -0.035616606 0.040960398 -0.10470466
0.05217188 -0.02540947 0.17220356 -0.06822264 -0.016294623 0.023785979 0.0064780912 0.13606015
0.12499213 0.08554357 -0.05798448 -0.011444079 -0.030348474 -0.12501104 -0.11607841 -0.1165252
0.072136335 0.1203805 0.24659553 0.10126532 0.17116381 0.1400989 0.10998049 0.029952236
0.08912348 0.041282035 0.12990887 0.24576454 0.010941471 0.02751533 0.12586692 -0.102343164
00000000: 5ae8 1c3d 3e6c 373d 37bb 35bd eef2 3b3d
00000010: b03c 423c 8f51 28bd 9cae e5bc 2053 b0bc
00000020: ea31 4d3d cabc 443d 920b 3f3d b49f 83bc
00000030: d699 133e 016b d93d ca74 38bd 6ef1 a1bd
00000040: 5b8e 7fbd f562 903d c1c3 853d 26a9 03bd
00000050: c800 3f3c d2ed 483d 3657 273d f614 35bd
00000060: 13f1 9a3d 0c4d 113d 5fd2 23bd d092 ecbc
00000070: e3eb 24bd 8014 ccbc a08b 773c 900f 6bbc
00000080: 78ed 453c 0e50 cc3d af3a a03d 6792 353e
00000090: 9ea6 b33d fbf6 283e 5caa dd3d 7bf5 ec3d
000000a0: 6fc4 263e 9ee5 843e ab3d 8e3e 002e 0f3e
000000b0: 2746 ebbc 49b8 1e3d 522b 303e 3b5b ec3b
000000c0: 338f 743d 3c92 143d cf79 12bb 65e9 123d
000000d0: 307e 17bc b96e 87bd 362d 03bd c5ed 79bd
000000e0: 7423 88bc f050 903b 1e9c 58bd c0fe 033b
000000f0: bedf 3dbd d2f4 223c c2f1 9c3d cb47 043e
00000100: 16af 593e 6ca4 26bd e4a8 b8bc 013d 0a3e
00000110: 7412 0cbe 704f 86bd f40b c73c 537c a33d
00000120: bfac 383e e545 b63d 24ce b83d d0a2 dcbc
00000130: 6e71 c2bd 0af4 e0bd 9979 a73c 9dcd c8bd
00000140: 8f83 26be 6a56 c6bd 806b 68bc 7699 3c3d
00000150: 41fe a03d 7e1f f0bc 4ff1 433d 0c99 6abc
00000160: cb82 40bb ad91 3c3c 0a09 0b3e ba41 8f3d
00000170: c4a1 9b3e c991 b6bd 33e8 15be a197 fc3c
00000180: 05c8 84bd db92 68bd ee39 6cbe e75d ccbd
00000190: 80a1 17be 524d cebd 317e 50bd 3882 3bbe
000001a0: b124 2a3d e572 e63d aae6 243e 71f1 38bd
000001b0: 9289 60bd 6684 083e e597 fb3d a8e6 4fbd
000001c0: d23b 663d e03b c83b 95dc 56bd 785f 5e3e
000001d0: 7855 e13c a762 52bd 6df6 63bd ffc9 c5bd
000001e0: fe06 b0bd f403 643b 487e 093d eae9 0d3d
000001f0: 4365 a03d 13b3 edbd 7a87 a0bd 99b4 8a3a
00000200: 6c05 b83d 7e08 be3c 022d f6bd 730e 03be
00000210: 9644 8bbd f4f1 8dbc 6893 693d 3a24 723e
00000220: dc21 5f3e dbc5 b83e efe5 5f3e 5dbf ef3d
00000230: 8541 9abd 2ebe 563d aaf2 293d 0afd 4fbb
00000240: 30ac a8bd 06a8 b6bd 92de 85bc 3b9e 493d
00000250: 9b51 75bd c0fd 073d 6592 c7bc 7b7a bc3d
00000260: a98b ec3c ba57 31bd 3239 a4bd 8214 e2bc
00000270: 360b b93c aca9 153e fef0 9a3a 6467 b8bc
00000280: 5b90 5d3d e6c0 173e 5ed9 0f3b 883d 0b3d
00000290: 08eb f33d 0d2e d83d 8ef4 213e 3e15 463d
000002a0: 6092 43bd cab2 4b3d 8e8c 1e3e e0a9 5d3d
000002b0: 175f 303d bafa 5a3d 871a 683c ae8c 043d
000002c0: 8a48 913d b67f 3f3d a44f b03d 39c9 b63d
000002d0: fefc d1bc df99 dcbc d57f 4fbd 18b6 d0bc
000002e0: 2682 3d3d 647c c03c fcaa 413c 0478 4dbd
000002f0: 70b6 02bd eae8 debc c437 e2bc 8945 8b3b
00000300: ea26 203d 4add 883d 2f87 afbb dc43 9bbd
00000310: bb83 8fbd 6d15 98bd b547 2d3e 3840 d3bd
00000320: 86e6 363d 42eb f83d 34d2 21bd 072e f13d
00000330: f72e 4f3e b970 9e3d 0cd0 0d3e a403 b33d
00000340: 9f59 fc3c 2cc8 8cbc d61c 413b 6b43 6c3d
00000350: 2ea3 2dbd 3d4e a93b bd8c 073e 513c c53d
00000360: b589 b33c 5c5a 783c 1532 be3d 53d6 c83d
00000370: d74d f6bd b8e2 11bd 17c6 273d 666f d6bd
00000380: 2eb2 553d 8527 d0bc 2156 303e 50b8 8bbd
00000390: 4d7c 85bc d0da c23c 2b46 d43b 5a53 0b3e
000003a0: e0fb ff3d 7831 af3d 2281 6dbd f27f 3bbc
000003b0: 5d9d f8bc e502 00be 84ba edbd c4a4 eebd
000003c0: 37bc 933d 0d8a f63d 8a83 7c3e 3164 cf3d
000003d0: 9145 2f3e 1676 0f3e 733d e13d 645e f53c
000003e0: 5f86 b63d 5a17 293d d506 053e b3a9 7b3e
000003f0: db43 333c d467 e13c 42e3 003e 4b99 d1bd

sequential/dense_1/MatMul f4 [10, 128]
-0.2228031 -0.17112678 -0.51073724 -0.7527889 0.24207318 -0.27263832 -0.35549712 -0.30235383
-0.06968558 0.13763483 0.25810283 -0.35702193 -0.39634684 0.14368647 -0.8073517 -0.15903158
-0.38857552 0.13468967 0.16335058 -0.084900446 -0.052298214 -0.36892843 -0.134692 -0.26679447
-0.2493122 -0.12934174 -0.30915165 -0.19954784 -0.17872672 0.3969893 -0.36745957 -0.07598676
0.14962135 0.291776 0.3227787 0.107184395 -0.33567205 0.12385813 -0.09103747 -0.56809837
0.28432432 0.28229266 0.115443245 -0.13917804 0.36391544 -0.28135693 -0.21673521 -0.21022426
0.1383402 0.1741253 0.1343801 -0.13453485 -0.39749756 -0.12228523 -0.10110723 -0.35257488
-0.5595683 0.13529997 0.2193581 0.06578533 -0.114535175 0.2207654 -0.2103724 0.18428607
0.07261211 0.302919 -0.42545334 -0.11610532 0.087788194 -0.06500881 0.14376628 -0.06875737
-0.51251185 -0.5753674 -0.28418124 -0.002356511 -0.24510296 -0.11073894 0.01413002 0.1746638
0.248908 -0.065971516 0.33289164 0.16643095 -0.12557064 -0.66526675 -0.107473254 0.21890756
0.11752567 -0.1504531 0.21312483 0.19413927 0.051887475 -0.44864964 -0.17917967 -0.38813227
0.045575686 0.14731255 -0.1608865 0.24835457 0.050359357 -0.069813296 0.11474344 0.21761231
0.20182213 -0.58886415 -0.399084 0.27626225 0.02684761 -0.38871184 0.09892738 0.062795244
-0.19633543 0.1635585 -0.37794143 -0.47681904 -0.3124406 0.1653105 -0.18140721 0.4150815
0.067280225 0.061692998 -0.6704436 -0.27792132 0.40781435 -0.06439771 -0.08576178 -0.38796148
-0.44156647 -0.24568668 -0.17758912 0.17031632 -0.4261373 0.033671767 -0.3675424 0.5036937
0.1997167 0.12997901 0.026808076 0.25642264 0.19095075 -0.3839932 0.26046598 -0.24277447
-0.02404603 -0.27605674 -0.3386434 0.15073103 -0.08668865 -0.086799294 0.102162234 -0.33527663
-0.36483622 0.18218683 0.21773966 -0.047906976 -0.099649005 -0.07088932 0.18939283 0.10598687
-0.06253815 0.06211434 -0.020085558 -0.07125512 0.25187168 0.17485282 0.06324536 -0.44676152
-0.115776084 -0.6263084 -0.05417284 0.12859224 -0.09257564 0.14039853 0.45385483 -0.06954105
0.27114895 -0.32624575 0.21707702 -0.30671814 0.20566943 0.2867753 0.058800653 0.017328417
0.4622592 0.20016083 -0.5829999 0.4524573 0.40139395 0.07532604 -0.07758377 0.011885035
0.25546467 -0.33008966 -0.38885242 -0.3083106 -0.08445784 -0.07241529 -0.22786863 0.13077937
0.18873192 0.17226636 0.16347085 0.11182602 -0.19715142 -0.19430551 0.1395094 -0.009214724
0.35187143 0.16678388 -0.23364995 -0.14092526 -0.11133043 -0.006046762 0.45147306 0.19142133
0.31056857 -0.4327905 0.6022192 0.016474813 -0.3421046 -0.5194224 -0.35124034 0.23125452
-0.26172262 -0.0040416084 -0.14311792 -0.66788423 -0.18104613 0.3972242 0.002960832 0.05325959
-0.29551363 0.024702141 -0.32818064 -0.8464393 -0.36756116 0.13089052 -0.1360371 -0.24189879
-0.16920494 -0.34127733 -0.040265635 0.02816316 0.07769085 0.1336464 0.280014 0.13472722
0.442915 0.27539593 0.27073103 -0.1306736 -0.21950467 -0.65580827 -0.4004176 0.47803205
00000000: 7f26 64be dc3b 2fbe adbf 02bf c6b6 40bf
00000010: 08e2 773e 4097 8bbe b803 b6be 1fce 9abe
00000020: 50b7 8ebd 25f0 0c3e 0e26 843e 94cb b6be
00000030: f9ed cabe 8c22 133e 9aae 4ebf 2dd9 22be
00000040: 5ff3 c6be 17ec 093e 6045 273e 49e0 adbd
00000050: a736 56bd 30e4 bcbe b3ec 09be 4999 88be
00000060: b34b 7fbe 2972 04be 2049 9ebe 4556 4cbe
00000070: 2304 37be 2e42 cb3e a923 bcbe f29e 9bbd
00000080: 5736 193e aa63 953e 4043 a53e 7e83 db3d
00000090: 35dd abbe 55a9 fd3d da71 babd e56e 11bf
000000a0: f592 913e aa88 903e 826d ec3d b084 0ebe
000000b0: 2053 ba3e 040e 90be d6ef 5dbe 0745 57be
000000c0: 0ea9 0d3e e74d 323e f09a 093e 81c3 09be
000000d0: cd84 cbbe ae70 fabd 4f11 cfbd b284 b4be
000000e0: de3f 0fbf 138c 0a3e 699f 603e 76ba 863d
000000f0: 6b91 eabd 5310 623e dd6b 57be 7db5 3c3e
00000100: a8b5 943d 3318 9b3e 05d5 d9be a0c8 edbd
00000110: 4cca b33d 5723 85bd 7837 133e aad0 8cbd
00000120: fa33 03bf 474b 13bf 3480 91be b26f 1abb
00000130: 45fc 7abe 19cb e2bd 9981 673c 11db 323e
00000140: bde1 7e3e 131c 87bd c670 aa3e e06c 2a3e
00000150: 9795 00be ec4e 2abf f01a dcbd 4e29 603e
00000160: 4cb1 f03d 6110 1abe 653d 5a3e 72cc 463e
00000170: f687 543d 68b5 e5be e07a 37be 46b9 c6be
00000180: 92ad 3a3d 1ad9 163e 6ebf 24be a950 7e3e
00000190: 9d45 4e3d 46fa 8ebd 9cfe ea3d c3d5 5e3e
000001a0: 76aa 4e3e cdbf 16bf bd54 ccbe 3f72 8d3e
000001b0: 85ef db3c 3d05 c7be 709a ca3d cb9a 803d
000001c0: 280c 49be e17b 273e 8a81 c1be a021 f4be
000001d0: 37f8 9fbe 2847 293e d0c2 39be 9085 d43e
000001e0: 37ca 893d ccb1 7c3d 31a2 2bbf b44b 8ebe
000001f0: 0bcd d03e f2e2 83bd dfa3 afbd e3a2 c6be
00000200: 0015 e2be 4a95 7bbe ecd9 35be 6767 2e3e
00000210: ab2e dabe 68eb 093d 842e bcbe 12f2 003f
00000220: 8982 4c3e 3819 053e 9c9c db3c d449 833e
00000230: 9888 433e c29a c4be cc5b 853e df99 78be
00000240: 2efc c4bc 4f57 8dbe ab62 adbe 3c59 1a3e
00000250: d289 b1bd d4c3 b1bd 6f3a d13d 61a9 abbe
00000260: d0cb babe 2f8f 3a3e 25f7 5e3e 1b3a 44bd
00000270: c714 ccbd 6b2e 91bd 32f0 413e a50f d93d
00000280: 0014 80bd 9b6b 7e3d 788a a4bc 34ee 91bd
00000290: 53f5 803e 9e0c 333e c986 813d edbd e4be
000002a0: 031c edbd bf55 20bf 57e4 5dbd afad 033e
000002b0: 4c98 bdbd a2c4 0f3e a95f e83e 8a6b 8ebd
000002c0: 09d4 8a3e af09 a7be 7049 5e3e 290a 9dbe
000002d0: 029b 523e 36d4 923e f4d8 703d 53f4 8d3c
000002e0: 3dad ec3e f6f6 4c3e 7b3f 15bf 7ca8 e73e
000002f0: 8283 cd3e 8a44 9a3d 3de4 9ebd 73b9 423c
00000300: 44cc 823e 8301 a9be aa17 c7be e3da 9dbe
00000310: 3bf8 acbd 784e 94bd 6556 69be 07eb 053e
00000320: f142 413e 9866 303e e764 273e 0a05 e53d
00000330: 10e2 49be 06f8 46be 8ddb 0e3e 5bf9 16bc
00000340: 7e28 b43e 65c9 2a3e ef41 6fbe b64e 10be
00000350: 3501 e4bd eb23 c6bb 7a27 e73e f403 443e
00000360: d802 9f3e b796 ddbe 0a2b 1a3f 30f6 863c
00000370: 5628 afbe def8 04bf c6d5 b3be fccd 6c3e
00000380: 8200 86be 786f 84bb 818d 12be 76fa 2abf
00000390: 2864 39be f860 cb3e 850a 423b ba26 5a3d
000003a0: 904d 97be 255c ca3c 4b07 a8be 3fb0 58bf
000003b0: fa30 bcbe 2a08 063e 4f4d 0bbe 51b4 77be
000003c0: 0f44 2dbe e7bb aebe 94ed 24bd 6db6 e63c
000003d0: 611c 9f3d 9ada 083e ff5d 8f3e eff5 093e
000003e0: c1c5 e23e b200 8d3e 429d 8a3e 4dcf 05be
000003f0: d5c5 60be 0de3 27bf 8903 cdbe 9ec0 f43e
